…
brary(magick) # 预处理图片library(ggplot2) # 作图 加载预训练好的ImageNet模型。 123456789101112131415161718192021222324252627282930313233343536373839404142434445464748495051525354555657585960616263646566676869707172737475767778798081828384858687888990919293model &lt;- application_vgg16(weights = \"imagenet\", include_top = TRUE)model## Model______________________________________________________________________________________________________________Layer (type) Output Shape Param # ==============================================================================================================input_1 (InputLayer) (None, 224, 224, 3) 0 ______________________________________________________________________________________________________________block1_conv1 (Conv2D) (None, 224, 224, 64) 1792 ______________________________________________________________________________________________________________block1_conv2 (Conv2D) (None, 224, 224, 64) 36928 ______________________________________________________________________________________________________________block1_pool (MaxPooling2D) (None, 112, 112, 64) 0 ______________________________________________________________________________________________________________block2_conv1 (Conv2D) (None, 112, 112, 128) 73856 ______________________________________________________________________________________________________________block2_conv2 (Conv2D) (None, 112, 112, 128) 147584 ______________________________________________________________________________________________________________block2_pool (MaxPooling2D) (None, 56, 56, 128) 0 ______________________________________________________________________________________________________________block3_conv1 (Conv2D) (None, 56, 56, 256) 295168 ______________________________________________________________________________________________________________block3_conv2 (Conv2D) (None, 56, 56, 256) 590080 ______________________________________________________________________________________________________________block3_conv3 (Conv2D) (None, 56, 56, 256) 590080 ______________________________________________________________________________________________________________block3_pool (MaxPooling2D) (None, 28, 28, 256) 0 ______________________________________________________________________________________________________________block4_conv1 (Conv2D) (None, 28, 28, 512) 1180160 ______________________________________________________________________________________________________________block4_conv2 (Conv2D) (None, 28, 28, 512) 2359808 ______________________________________________________________________________________________________________block4_conv3 (Conv2D) (None, 28, 28, 512) 2359808 ______________________________________________________________________________________________________________block4_pool (MaxPooling2D) (None, 14, 14, 512) 0 ______________________________________________________________________________________________________________block5_conv1 (Conv2D) (None, 14, 14, 512) 2359808 ______________________________________________________________________________________________________________block5_conv2 (Conv2D) (None, 14, 14, 512) 2359808 ______________________________________________________________________________________________________________block5_conv3 (Conv2D) (None, 14, 14, 512) 2359808 ______________________________________________________________________________________________________________block5_pool (MaxPooling2D) (None, 7, 7, 512) 0 ______________________________________________________________________________________________________________flatten (Flatten) (None, 25088) 0 ______________________________________________________________________________________________________________fc1 (Dense) (None, 4096) 102764544 ______________________________________________________________________________________________________________fc2 (Dense) (None, 4096) 16781312 ______________________________________________________________________________________________________________predictions (Dense) (None, 1000) 4097000 ==============================================================================================================Total params: 138,357,544Trainable params: 138,357,544Non-trainable params: 0______________________________________________________________________________________________________________#加载自己的模型model2 &lt;- load_model_hdf5(filepath = \"/home/feng/Downloads/fruits-360/keras/fruits_checkpoints.h5\")model2## Model______________________________________________________________________________________________________________Layer (type) Output Shape Param # ==============================================================================================================conv2d_1 (Conv2D) (None, 20, 20, 32) 896 ______________________________________________________________________________________________________________activation_1 (Activation) (None, 20, 20, 32) 0 ______________________________________________________________________________________________________________conv2d_2 (Conv2D) (None, 20, 20, 16) 4624 ______________________________________________________________________________________________________________leaky_re_lu_1 (LeakyReLU) (None, 20, 20, 16) 0 ______________________________________________________________________________________________________________batch_normalization_1 (BatchNormalization) (None, 20, 20, 16) 64 ______________________________________________________________________________________________________________max_pooling2d_1 (MaxPooling2D) (None, 10, 10, 16) 0 ______________________________________________________________________________________________________________dropout_1 (Dropout) (None, 10, 10, 16) 0 ______________________________________________________________________________________________________________flatten_1 (Flatten) (None, 1600) 0 ______________________________________________________________________________________________________________dense_1 (Dense) (None, 100) 160100 ______________________________________________________________________________________________________________activation_2 (Activation) (None, 100) 0 ______________________________________________________________________________________________________________dropout_2 (Dropout) (None, 100) 0 ______________________________________________________________________________________________________________dense_2 (Dense) (None, 16) 1616 ______________________________________________________________________________________________________________activation_3 (Activation) (None, 16) 0 ==============================================================================================================Total params: 167,300Trainable params: 167,268Non-trainable params: 32______________________________________________________________________________________________________________ 加载准备图片 这里，我将加载并预处理两张水果图片。 香蕉 12345test_image_files_path &lt;- \"C:/Users/Administrator/Desktop/fruits-360/Te
…
